Layer (type)                 Output Shape              Param #   
=================================================================
conv2d_5 (Conv2D)            (None, 32, 32, 32)        896       
_________________________________________________________________
dropout_5 (Dropout)          (None, 32, 32, 32)        0         
_________________________________________________________________
conv2d_6 (Conv2D)            (None, 32, 32, 32)        9248      
_________________________________________________________________
max_pooling2d_3 (MaxPooling2 (None, 32, 16, 16)        0         
_________________________________________________________________
flatten_3 (Flatten)          (None, 8192)              0         
_________________________________________________________________
dense_5 (Dense)              (None, 512)               4194816   
_________________________________________________________________
dropout_6 (Dropout)          (None, 512)               0         
_________________________________________________________________
dense_6 (Dense)              (None, 10)                5130      
=================================================================
Total params: 4,210,090.0
Trainable params: 4,210,090.0
Non-trainable params: 0.0
_________________________________________________________________
None
Train on 25000 samples, validate on 10000 samples
Epoch 1/10
25000/25000 [==============================] - 425s - loss: 1.7306 - acc: 0.3638 - val_loss: 1.6284 - val_acc: 0.4068
…
